model_cnn.pth (torch, 435171 bytes, 8 tensors)

conv1.weight f4 [6, 3, 5, 5]
00000000: f1a5 83bc d127 24be c9c4 813d adab dbbd
00000010: d17e 99bd 73ae 12bd cae6 1b3d 9342 a1bd
00000020: 8eb5 a7bd 4b52 74bd 51d1 c33c 30d4 7bbd
00000030: eb25 a83d cba2 3cbc f729 313b f621 e13c
00000040: 48c6 023e 2ff8 0b3e 5032 e83d 950d 113e
00000050: 224b 0a3e 6cc5 8abc 9962 693d 82be 3d3e
00000060: af30 283e 608b 753d 91ae da3d 756f a13c
00000070: 911f e83d dd3a 7cbd a37b bfbd 6526 cfbd
00000080: 9212 ee3d e8e8 ca3d ff3c 28bc a3c2 d03b
00000090: d847 323d 4410 f2bc a209 babd 2186 f03c
000000a0: 1c6b b63c 1b25 26bd 3a4a 3dbd cce8 a53d
000000b0: 3887 26bc bb13 c2bc 927b 91bd aab4 6a3b
000000c0: 976a cabd 1901 03be d4e0 323d 2f62 0c3e
000000d0: 28bd 123e 861b b53d bab1 cb3d 8cb0 283c
000000e0: fb44 143d 72b3 113e ecab 433e 6946 233e
000000f0: b07b 00be 6b22 a23c 66a6 a7bd 0424 d13c
00000100: 6e81 7dbc 5bb5 efbd 28ba 9bbc d9a6 ed3c
00000110: d7b3 0fbd dc26 363d 30d9 53be 4556 88bd
00000120: ff29 563b c2bd 163d 4556 783d f70a 143d
00000130: e389 de3d c612 9f3d 2b85 163e f288 d83d
00000140: 915c 3b3e 5a6f df3d 5713 cfbd 2481 443e
00000150: 5094 2c3e c34d 6d3c d39a 94bd 56f7 27be
00000160: a326 50bc eed0 b93d d118 933d a0a7 a7bd
00000170: b801 b9bd 6b64 9e3d d80c ad3d 14b9 053c
00000180: 26b1 f9bc b12f 0abe 4160 07be be7c 9d3c
00000190: 56d1 733d 678f 9fbd 44d9 50be e79c 2ebe
000001a0: a148 073d 1687 683d d2e2 23be 689d adbe
000001b0: aa91 00be abce 253d e92a 203e 4532 113d
000001c0: 18e0 bbbe 7aab 0ebe d6e9 463d e505 4b3e
000001d0: 4365 0a3e 8aa1 c6bd 8345 c03c 8692 1e3c
000001e0: 3fd5 2e3e f0a2 c63d df88 13be e216 a2bb
000001f0: 7d0c 7cbd d6c2 113c 7bee 0cbe ca5f 27be
00000200: ca6b c8bc 438a 1dbd a4c6 403d 7083 9cbc
00000210: 91ae aebd b205 eb3d 94a5 46bc 5f7a 333d
00000220: 6ccc 88bd 4b69 83be 1191 a1bc eb2b 47bd
00000230: 04dd 533e 4f36 c03d 5d7d 27be db7a a33c
00000240: 9477 853d 0c38 6a3e 3a73 f23d 4293 53bd
00000250: bc98 c03d c795 103e 7838 6cbd bf97 14be
00000260: b3fc d8bd f328 a0bd 7032 1bbd 5e10 afbd
00000270: c595 0bbe ede8 d8bd fb81 56be 7b39 14bd
00000280: 1d3a 80bd aae3 703d 558a 15bd ccd2 703d
00000290: 7181 84bd 8f0b 1b3e 8a1e 163e bc26 613e
000002a0: 6867 073e 3187 883d 830f 1f3e 8b3c 933d
000002b0: fcbc 023e 3dc6 ee3d e99a ae3d ce99 853d
000002c0: eaa1 4ebd 29b7 b7bc 934b 99bd 9e4d 06bd
000002d0: f865 92bd b435 e1bd 00db 57be 1350 90bd
000002e0: daf4 eebc 1190 1abd a822 0bbe cc00 5fba
000002f0: be0a 463c 54cf c7bc dda9 aebb 3e0f ff3a
00000300: 256b a53d 1865 32bc 3979 8d3d bd7e 033e
00000310: e417 ea3c d939 433c 23e6 69bd 14a2 703b
00000320: 6cd8 83bd 4042 493c cea6 07be d9ba 8a3d
00000330: 6de5 ee3d b383 133d 9c3e 7cbc 72c5 c73c
00000340: 0ff0 bd3d e6ee d93c bb1b ba3b 9430 103d
00000350: 8413 fe3d 8018 04bc 45a7 e23d 7064 bdbc
00000360: 0b75 223e 1574 483d f3f8 103e 734f 893b
00000370: 133e 48bd dfdd c53d 1139 493c d7e0 593d
00000380: 41ba 99bd 0427 b43d 5828 813d 50cd 6cbc
00000390: b784 893d 67e7 e53d 80f8 f93d 01e4 623e
000003a0: a0fe 4f3e cc9d ea3d 4c70 b43d 85fc 763d
000003b0: 8dfb ccbd 4658 293d ec16 15be 1145 b33d
000003c0: b5ca 02be ee11 9ebe fad9 56be cc97 32be
000003d0: dad5 a7bd 508c 9d3d ae64 e63c 2fca 3bbc
000003e0: d4a3 9fbd 34fc bcbd 41e6 e9bd 0009 7d3c
000003f0: 2e02 0dbd f5ef dc3b 7ab3 06be 84e4 7e3c
-0.016070338 -0.16030814 0.06336362 -0.10726104 -0.074948914 -0.0358109 0.038061894 -0.07874026
-0.08188926 -0.059648793 0.02390352 -0.061481655 0.08210357 -0.011513422 0.002703307 0.027482014
0.12770951 0.13668893 0.11337721 0.14165337 0.13505223 -0.016939841 0.056978796 0.18529704
0.16424821 0.05994737 0.10677827 0.019706467 0.11334146 -0.061579574 -0.09349754 -0.10114745
0.11624636 0.099077046 -0.010268449 0.0063708588 0.043525547 -0.029548772 -0.090838686 0.029360833
0.02226787 -0.04056273 -0.046213366 0.08101043 -0.010164075 -0.023691049 -0.07103647 0.003581325
-0.09883612 -0.12793387 0.043671444 0.13709329 0.1432997 0.0884314 0.09946008 0.010295998
0.036198597 0.14228609 0.19108552 0.15944828 -0.12547183 0.019791802 -0.08186035 0.025529869
-0.015472753 -0.11704513 -0.019009665 0.029010223 -0.035083618 0.044470653 -0.20688319 -0.066570796
0.003267884 0.03680206 0.060629148 0.03614327 0.108661436 0.077672526 0.14699237 0.10572995
0.1829703 0.109099105 -0.10111111 0.19189888 0.16853452 0.014483872 -0.07256093 -0.16402945
-0.012704524 0.09073053 0.07182468 -0.08186269 -0.09033531 0.07733997 0.084497154 0.008161802
-0.030479979 -0.13494755 -0.13220312 0.01922452 0.05952581 -0.07791024 -0.2039538 -0.17052041
0.03302825 0.056769453 -0.16004494 -0.33909154 -0.12555566 0.040480297 0.15641369 0.03544833
-0.36694407 -0.139326 0.048562847 0.19826467 0.13515191 -0.0969878 0.023470646 0.009678489
0.17073534 0.096990466 -0.14407681 -0.0049465755 -0.061535347 0.00889655 -0.13762848 -0.16345134
-0.02446546 -0.038461935 0.04706444 -0.019105643 -0.0852939 0.11475696 -0.012124438 0.043817874
-0.066796154 -0.2566627 -0.019722493 -0.048625868 0.2068978 0.093853585 -0.16356416 0.019956043
0.06516948 0.22872943 0.11838384 -0.051654108 0.09404132 0.14119636 -0.05767104 -0.14511012
-0.105950736 -0.078203104 -0.037889898 -0.08548044 -0.13631351 -0.10591302 -0.20948021 -0.03618763
-0.06261084 0.058810867 -0.036508877 0.05879478 -0.064700015 0.15141128 0.14660087 0.21987432
0.1322304 0.06666411 0.15533261 0.07189282 0.12767404 0.11658905 0.085256405 0.065234765
-0.050447382 -0.022426205 -0.07485118 -0.032788865 -0.07148355 -0.10996571 -0.21079636 -0.07046523
-0.029169489 -0.03773505 -0.13587439 -0.00085068936 0.012087522 -0.024390854 -0.005330308 0.0019459499
0.08077077 -0.01088836 0.06907887 0.12841316 0.028575845 0.011915647 -0.05710424 0.00367177
-0.064377636 0.012283862 -0.13247225 0.067739196 0.11664853 0.03601427 -0.015395787 0.024386141
0.09274303 0.026603173 0.0056795753 0.035202578 0.12406066 -0.008062482 0.110670604 -0.023119181
0.15864961 0.04893883 0.14157467 0.0041903793 -0.048887324 0.09661459 0.012281672 0.05319294
-0.07506228 0.08796504 0.06306523 -0.014453247 0.067147665 0.11225777 0.12205601 0.22157289
0.20311975 0.114558786 0.088104814 0.060299415 -0.10008917 0.04134395 -0.14559525 0.08753408
-0.12772639 -0.30873054 -0.20981589 -0.17440718 -0.08195086 0.07692778 0.02812418 -0.011461779
-0.077949196 -0.092277914 -0.114208706 0.01544404 -0.034425907 0.0067424723 -0.13154402 0.015557412

conv1.bias f4 [6]
00000000: 1193 50be 3680 563c 025b 90be 4f6d 063d
00000010: 55a5 c13d ee4f 123e
-0.20368601 0.013092091 -0.28194433 0.03281909 0.09455363 0.14288303

conv2.weight f4 [16, 6, 5, 5]
00000000: 259c 373e a1c2 943d 397d eabc a5f3 7a3d
00000010: a42b 46bd af0e 123e da4b cd3c a75d 2dbd
00000020: c6e8 b6bd e291 09be 5f76 433e 210d 5d3e
00000030: e287 883d 7e10 71be 4aa8 83be cef5 033e
00000040: 3779 283e bca2 133e f33b 24be 4e2c b6be
00000050: e765 bd3d 489c d53d 236c b23c fb28 653c
00000060: 83f0 45be e8d6 bc3d e908 183e f9b0 9c3d
00000070: fada 48be 7161 c2bd fba5 613d c755 0a3e
00000080: 0985 a33d 5c35 df3c 307e 2ebe 3728 48bc
00000090: ea1b 8dbd 64a5 9e3c cf98 413d 1999 2b3d
000000a0: 787a 403d 5751 23bc 9654 bfbd 6af4 c43c
000000b0: 9702 213d bdae 09bd 20bb ce3d 24fd da3d
000000c0: 3b9e d2bd 59e3 c8bd 29f4 513d 3e81 b13d
000000d0: c803 16be 22ce 80bd a56f 383d d02d 2f3c
000000e0: b636 743d b726 a03b c370 d3bd cdb8 e2bd
000000f0: 93a9 553d a265 353c d923 0f3d 51c1 13bd
00000100: c742 2fbe bae9 113d ed46 01bd d5e1 b1bd
00000110: dbb9 fc3c c3dc 01bd f3c1 163e 0f00 cd3b
00000120: ff0e f3bc 5686 18bd 3181 933d 31da 0ebe
00000130: e7a6 6fbd c3be c53d b6c1 11bd 6756 59be
00000140: a538 803d f317 6fbe da3a 92bd be77 3a3e
00000150: 85c4 d3bc 20fc f43d dd53 8bbe 4a97 88be
00000160: aaa6 2d3d 2a2d 9c3d 4899 13be 09c1 783b
00000170: a7a8 04be 5ff3 65be 4a20 15bc c0b9 e7bd
00000180: f98a 103c b187 ba3d bd70 03be baef c0bd
00000190: 4da4 373e 0d4d 533d 06af 20be cb85 91be
000001a0: 84cd 48bd a6d5 543e 3213 853d 348c 89bd
000001b0: db43 56be 8377 9cbe f7f1 523e 1e33 f83d
000001c0: 0c47 a23d 4fb3 12be dd9d dfbe 44c9 003e
000001d0: 3d30 df3d 3db7 053e 2f54 25bc 562c adbe
000001e0: 1a06 513e 0acf 5f3e 9934 d93d d1fb 873d
000001f0: e3f5 d0bc 6d18 d63d 6a2b 043e a058 a23d
00000200: ec6c 9d3c f0fe 823d 44a0 0ebe 8703 333d
00000210: e3af 1e3e 84f8 ce3d 059c afbd 6646 a5bd
00000220: b905 3abe f1f8 2c3e 6bf9 103e a3d2 a5bd
00000230: 6047 1cbd dfeb bfbd 7750 8b3c d136 5e3d
00000240: 5cc6 83ba 3a48 123d 8181 fcbc bc1a a6bd
00000250: 7de5 ecbc 1546 a6bc b67c 96bb 4fdf 6ab9
00000260: cd19 03bd 8324 9a3b cd59 aabd 84d9 2bbd
00000270: d5b0 7abb 1f28 3fbd b729 2cbd f3ac eabd
00000280: 2b20 23bd 50f5 3abd 2ab7 a4bd d80e 1cbe
00000290: aec8 0ebe fd5e 3ebe b49e b9bd 956b 48be
000002a0: e1ac 85bd 2afa 75bd 6e63 35be e60f 7abe
000002b0: c90a 2cbe b3ff 03bc 37a0 a1bd e01c cd3d
000002c0: d460 903d c4bc d33c 0351 6d3d 9c2b c23d
000002d0: bff8 813c 3a4c e43d 02af c0bc 9a23 603d
000002e0: a8b9 4b3d d22b 2ebc 39b5 95bc 314b 073d
000002f0: f078 54bd 3688 103c 120b cd3d b1d5 f23d
00000300: 35f1 e83d 95e0 06bc 4463 f63c 64ed b33d
00000310: 1ce2 8b3d 9934 bd3d cab7 71bb 97fd 023d
00000320: 20e1 0d3d 71c2 a6bd 32d2 f4bd da14 e3bb
00000330: ad40 dcbd f2b0 34be a7bf 82bd bde7 10bd
00000340: 0ccc dd3b 343a abbd 4821 8fbd e93b ffbc
00000350: 5f38 dc3c 10a5 32bd 4499 c5bd d43c 2ebc
00000360: 9204 a23d f26a 1bbd 845a b03d 1785 b93d
00000370: 46c2 bbbd e087 bd3d c518 a23d b6f8 a33d
00000380: c283 4b3e 6bc0 0d3d 04a0 ed3c 7036 8a3c
00000390: 58ea e13d 3398 b33d 6361 553d 8739 973c
000003a0: ebf0 12bd 3645 dc3d 51ee d43d 4acc d3bc
000003b0: 0576 05bd 2632 2bbd 592c 0abc 3c93 a53d
000003c0: bc7b 8fbc 6f4c 913c 68c8 a03d cf38 a03d
000003d0: 7ba1 c93d 925f 0c3d 7aeb 043e 80ed 303d
000003e0: 8c7b 363e a904 bebc 20a1 6abe a8ca f9bd
000003f0: b594 06be 0beb efbd c555 c3bd 2fd5 e6bc
0.17930658 0.07263685 -0.028624164 0.061267514 -0.048381463 0.14263414 0.025060583 -0.042325642
-0.08931117 -0.13434556 0.19088124 0.2158704 0.066665426 -0.23541448 -0.25714332 0.12886736
0.1645249 0.14417547 -0.16038494 -0.35580677 0.09247952 0.10430199 0.02178008 0.013986821
-0.19330029 0.092206776 0.14847149 0.07650942 -0.19614783 -0.09491242 0.055089932 0.13509284
0.07984359 0.027247123 -0.17040324 -0.012216619 -0.0689009 0.019365974 0.04726487 0.041894052
0.046991795 -0.009968123 -0.09342305 0.024042327 0.03930911 -0.03361391 0.10094285 0.10692814
-0.10284086 -0.09808988 0.05125824 0.08667229 -0.1464988 -0.06289317 0.045028348 0.010692075
0.05962249 0.0048874277 -0.10324242 -0.11070404 0.05216367 0.011071594 0.034946296 -0.036073033
-0.17115317 0.03562329 -0.03156178 -0.08685652 0.030850342 -0.031704675 0.14722423 0.0062561105
-0.029670237 -0.037237488 0.07202376 -0.13950421 -0.05850878 0.096555255 -0.035585128 -0.21224366
0.06260804 -0.2334898 -0.07140131 0.1820974 -0.025850544 0.119621515 -0.2721242 -0.26677924
0.04239527 0.07625802 -0.14413941 0.0037956855 -0.12954961 -0.2245612 -0.009101937 -0.11314726
0.008822196 0.09107912 -0.12835975 -0.09420724 0.1793377 0.051587153 -0.15691766 -0.28422388
-0.04902412 0.20784625 0.06497802 -0.06716195 -0.20924322 -0.3055993 0.20600115 0.12119125
0.07923707 -0.14326213 -0.43675128 0.12576777 0.108978726 0.13058181 -0.010090872 -0.33822888
0.20412484 0.21856323 0.10605735 0.06639827 -0.025507873 0.104538776 0.12907186 0.0792706
0.019216977 0.06396282 -0.13928324 0.043704536 0.15496783 0.10105994 -0.0857468 -0.08070068
-0.18166246 0.16891839 0.14157645 -0.080968164 -0.038154006 -0.09371161 0.017006142 0.054251496
-0.0010053623 0.035713412 -0.030823471 -0.08110568 -0.028918022 -0.02029709 -0.0045925034 -0.00022399168
-0.032007027 0.0047040596 -0.083179094 -0.041955486 -0.0038252373 -0.04666912 -0.04203197 -0.11458769
-0.0398256 -0.045644104 -0.08042748 -0.15240037 -0.1394374 -0.18590923 -0.09063473 -0.1957229
-0.06527115 -0.06005303 -0.1771371 -0.24420127 -0.16800989 -0.008056569 -0.07891887 0.10015273
0.070497185 0.025846846 0.057938587 0.09480974 0.015865682 0.111473516 -0.02352095 0.054721452
0.049737602 -0.010630565 -0.01827489 0.033030692 -0.051873147 0.008821538 0.10011877 0.11857165
0.113741316 -0.0082322555 0.03007663 0.08785513 0.06830236 0.09238548 -0.0036883228 0.031980123
0.034638524 -0.081425555 -0.11954154 -0.006929976 -0.107545234 -0.17645624 -0.06384211 -0.035377253
0.006768709 -0.08360711 -0.0698877 -0.031156497 0.026882349 -0.043614447 -0.09648374 -0.01063462
0.07911028 -0.037943788 0.086110145 0.09058588 -0.09167914 0.09254432 0.07914881 0.08006422
0.1987448 0.034607332 0.029006965 0.016871661 0.11031026 0.08769264 0.05209483 0.018460048
-0.03587429 0.107553884 0.10397018 -0.025854249 -0.032583255 -0.041795872 -0.008433425 0.08084723
-0.017515056 0.017736642 0.078507245 0.078233354 0.09845253 0.03427083 0.12980452 0.043195248
0.17820567 -0.023195582 -0.22913027 -0.12196857 -0.13142665 -0.11714753 -0.095378436 -0.028177826

conv2.bias f4 [16]
00000000: 9cf0 0dbe eb20 b8bc 68bc 95bd 436f c43e
00000010: e685 0a3e 2a89 bebd d34f 413e 8951 5dbc
00000020: 7848 333d ab8b 84bd c4d5 6d3c a771 fb3d
00000030: 7751 a4be 360d 243e 7e6f 84bd 67e4 913c
-0.13861316 -0.022476634 -0.07311326 0.38366136 0.1352764 -0.09303506 0.18878107 -0.013508209
0.043770283 -0.06471952 0.014516298 0.12277537 -0.32093403 0.16020665 -0.06466578 0.017809106

fc1.weight f4 [256, 400]
00000000: e495 cbbe a798 28bd 2216 1fbe 55ce 2dbe
00000010: 3259 1bbe a3b4 e9bd 46e1 013c 910c 263c
00000020: c045 2a3d 4e83 8abd cf78 b83c c208 2a3d
00000030: 6403 31be 297c 963d 5c5a f539 98b4 c9bd
00000040: a8af 4cbd 5968 20be bd4a 2fbe f184 00be
00000050: 36a4 82be b4d6 64be e472 cabe 08cd 06bf
00000060: 8092 c4be f886 43be 97f3 eebd 9902 fcbd
00000070: 9473 fdbd 180f cf3c 0cb2 2ebd f464 63bb
00000080: 3bf9 913d 2d98 91bd aba5 06be 3908 42bd
00000090: 40bc 35bd 1746 69bd 2fa7 de3c 4d7a 1abd
000000a0: 5c08 56bd d8e7 2d3e 257d e03c 944c bdbd
000000b0: 5a43 0bbe 505c f7bd b7f5 d53b 0736 88bc
000000c0: 99b1 c93d 25d0 0a3d 3aa3 4f3d c6e5 f9bc
000000d0: c59e 663d 4ea3 d3bc faa3 debc 25ae 023d
000000e0: 9375 e13c e14c 4c3d 6756 663c a318 ad3c
000000f0: af20 8dbb 1bff 383b bd5e 563d 7191 7abc
00000100: de89 333d c948 70bc fc07 c53b 1d49 b33b
00000110: 70b6 7b3d f71c 28bd 774c 593d a885 503c
00000120: bf13 9ebc aca7 0dbb 386b ff3c 77ae 88bd
00000130: 4aa3 5a3c 1545 0a3d 0d7e 92bd b432 08be
00000140: 380d 9ebd 2074 e13d 7884 f33d 10e7 8fbc
00000150: bb59 b5bd 5a67 13be 2903 443c 4915 9d3d
00000160: 6a7e da3c ff73 1ebc 5ba2 13be 913e 76bd
00000170: 19be f4bd a7ce 92be 8809 b8bd 6f1d abbd
00000180: d0cc 87bc c391 33bd 890e 21be 4fc4 d33c
00000190: 1273 81bd c5ba 823d be4f a23d 9fe6 853d
000001a0: 29aa d63d e0b1 1a3d dd8a 703d 2f8b 7d3d
000001b0: f5d4 0e3e 0284 073e fa13 d73c 2a42 f3bc
000001c0: 31cc 35bb 736b 9c3d c5a2 f33c f1be 923d
000001d0: 0ab1 cb3c c21b 023d 8bd0 50bd 45e8 e8bb
000001e0: 1fc5 2b3e cf56 183d 2ca5 003e 2150 a73c
000001f0: b7f3 933d a957 b33d f070 3dbd ce35 8fbd
00000200: e57f 57bd 6806 48bd f9c2 4b3e 1d58 9d3d
00000210: 7204 27bd 21a2 6c3d e5c0 333e d4fc 0d3e
00000220: e5c6 3a3e 9a05 3e3e 9def 94bc 656f e9bc
00000230: 401c 12be ed7f 3abd dbb1 7fbb 04eb ee3c
00000240: bd55 f33d 285e 1ebe 26bb afbc 3349 93bd
00000250: 6272 0ebc 156c 823d b2de 4bbe dcba 6cbe
00000260: f167 f4bc 1ba8 96be fa02 b8be fe66 973d
00000270: d3b0 5c3d bf7a 703e 7c38 1b3e 0c55 053e
00000280: d1fd ea3d 0ecf 333d 20aa 0cbc 9b0f 853c
00000290: 96b6 113d 14c2 9d3c 1b8c 59be 00d7 4dbe
000002a0: e9f1 c0bc 0fb6 3cbe 17d8 36be 48da 77be
000002b0: 3602 12be 79b6 41bd ce3d 9abe 7a6b 383c
000002c0: c3a6 993c ddd9 aebc c7d0 c43c 105b 023d
000002d0: 38d1 3e3d dd0f ba3c ca78 a6bc 5305 48bc
000002e0: 9305 b83c e547 1fbd 339b 6c3b 90c9 1ebd
000002f0: ed8f 2dbd 7f74 13bd 6bee 093d 805b d53c
00000300: 9a12 e03b b0da e23c 006c 90ba 1ae3 263d
00000310: 2d55 0c3c aa28 cebc 28fd 223d 0db2 adbb
00000320: fb86 3dba 93ea 59bd f42f 7dbe a8aa bbbe
00000330: 5572 57be c8f4 35be 22b1 453b 50bb ebb9
00000340: 3dc1 03be 4815 14be c704 47be 97e1 77bd
00000350: ebf4 ac3d 327f 243e fbd6 283d 08c0 d2bd
00000360: da73 0dbe 5d88 9bbd e1cc ae3d cf35 073e
00000370: e8a8 eebd e2f3 9ebd 41b0 85bd 849d 11bd
00000380: 9a04 25be 908f 873c 9ae5 a4bb 6aa0 24bd
00000390: 0a36 1b3d da0c 0a3d 5a6f a73c 3aff adbc
000003a0: 9af6 fa3b 7b0b 043d 9a5f fcbb 60dd 1f3c
000003b0: 62fa 0abd a72c c3bc 001d 39bc f0ef 8a3c
000003c0: e733 463b 6332 44bd d7b0 8c3c 853b 21bd
000003d0: e54c 0c3d 00c4 8aba ad42 f7bc 2a3b 113d
000003e0: a764 293c 4399 ed3c b1fc f83d 54f3 2dbd
000003f0: 085a 093e bc70 333e 1890 633d 840a 123e
-0.39762795 -0.041161206 -0.15535787 -0.1697324 -0.15170744 -0.11411407 0.0079272445 0.010134832
0.041570425 -0.06763326 0.022518544 0.04151226 -0.1728645 0.073479004 0.00046797364 -0.09848899
-0.049972206 -0.15664805 -0.17118354 -0.12550713 -0.25515908 -0.22347528 -0.3954078 -0.526566
-0.3839302 -0.19094455 -0.11667555 -0.12305183 -0.123755604 0.025275752 -0.042650267 -0.0034697624
0.07127615 -0.07109103 -0.13149135 -0.047371123 -0.044368982 -0.05695161 0.027179329 -0.03771429
-0.052254066 0.16982973 0.027403424 -0.09243122 -0.13599911 -0.12078154 0.0065295356 -0.016627325
0.09848327 0.03388991 0.050692774 -0.030505072 0.05630376 -0.025834706 -0.0271778 0.03190436
0.027521884 0.049878005 0.014058686 0.021129912 -0.0043068747 0.0028228227 0.052336443 -0.015293465
0.043832652 -0.014665791 0.0060129147 0.0054713623 0.061453283 -0.041043248 0.05305144 0.012727179
-0.019296525 -0.0021614833 0.031179056 -0.066739015 0.013344595 0.033757288 -0.071529485 -0.13300592
-0.07717365 0.11008477 0.11890501 -0.017566234 -0.08855005 -0.14394894 0.011963644 0.076700754
0.026671607 -0.00967121 -0.14417402 -0.06011826 -0.11950321 -0.28673288 -0.08986193 -0.083552234
-0.016577154 -0.04384018 -0.15728201 0.025850443 -0.06320776 0.0638328 0.07925366 0.06538128
0.10481674 0.03776729 0.05872618 0.061900314 0.13948424 0.1323395 0.026254643 -0.029694635
-0.0027740116 0.07637682 0.0297407 0.071653254 0.024864692 0.031764753 -0.050980132 -0.007107767
0.16774414 0.037192162 0.12563008 0.02042395 0.07224219 0.08756954 -0.046250284 -0.06992684
-0.052612204 -0.048834234 0.19898595 0.07682822 -0.040775724 0.057771806 0.17554052 0.13865978
0.18239935 0.18556824 -0.018180663 -0.0284955 -0.14268589 -0.045532156 -0.0039015922 0.029164799
0.11881588 -0.15465605 -0.021451544 -0.07191696 -0.008694263 0.06368271 -0.1990917 -0.23118156
-0.02983472 -0.2942513 -0.3593977 0.07392691 0.05387957 0.23484324 0.15158266 0.13020724
0.11474193 0.043898635 -0.008585483 0.016242793 0.03557452 0.019257583 -0.21244852 -0.20101547
-0.023552852 -0.18428825 -0.17855869 -0.24204361 -0.14258656 -0.04729316 -0.30125278 0.011256093
0.018756276 -0.02134412 0.024025334 0.031825125 0.046586245 0.022712642 -0.020321269 -0.012208301
0.022463595 -0.038886923 0.0036103248 -0.038766444 -0.042373586 -0.03599977 0.03367464 0.026044607
0.006838155 0.027692169 -0.0011018515 0.040743925 0.008565229 -0.025165875 0.03979221 -0.0053007663
-0.00072298915 -0.053202223 -0.24725324 -0.36653638 -0.21039708 -0.17769158 0.0030165394 -0.00044962252
-0.12866683 -0.14461243 -0.19435416 -0.060517874 0.08445152 0.16064146 0.041220646 -0.10290533
-0.13813725 -0.075943686 0.08535171 0.1320412 -0.1165331 -0.07761361 -0.065277584 -0.03555061
-0.16115037 0.016547948 -0.0050322535 -0.040192045 0.037893333 0.033703662 0.020438839 -0.021239866
0.0076587917 0.03223751 -0.0077018263 0.00975737 -0.03393019 -0.023825003 -0.011298418 0.016960114
0.0030243339 -0.047899615 0.017174168 -0.039363403 0.03425302 -0.0010586977 -0.03018316 0.035456814
0.010338939 0.029003745 0.12157572 -0.042468384 0.1341325 0.17523474 0.05555734 0.14261824

fc1.bias f4 [256]
00000000: eb7c c63e a8d1 323e eedc ba3e a35a c1bd
00000010: c27c 15be 1800 a83e e0ad c03e 47b6 a33e
00000020: a3c9 34bd e1ed fb3c d878 18bc 0da8 0ebe
00000030: 4a35 e2bd fe83 ce3e 931e 91bb 787b 9abd
00000040: 09fe c13d f7ba 953e c2e3 73be 4953 cebd
00000050: a3f3 01bd a52a 69bd 8f82 983d 3df0 15be
00000060: 998b 203d 29ed fd3d 5ec1 8b3e 7e80 f63e
00000070: 06e5 ad3e 6b3b a8bd 99cf f1bb f9b0 49bd
00000080: c580 efbc 13b7 efbb cb7b 6fbd d510 0f3d
00000090: 1b69 13be e6cc 24bd 6b7a 45bd 3881 413e
000000a0: 5383 9a3e 3ff8 943e 82bf e53d 45db 9f3e
000000b0: 0fa2 0d3e 5b73 d43d a0f1 423e 527e c23e
000000c0: 2bb8 16be 0859 8bbd ee96 423e 0f5f 403e
000000d0: 7e23 123e cc46 d53e 8170 36bd 8c72 dabd
000000e0: e043 0d3f 56b9 22bd 92ac 803e 15bd 8dbd
000000f0: 2007 52bd 7d7b e5bd d17b 92bd 0f24 c73e
00000100: d4d0 ec3d 6471 183f 0d5f e83e 648b c83d
00000110: 8473 6ebd 046c 8b3b 0ffe 98bd ee68 993e
00000120: a048 cbbe 9f2f c7bd 76fd c83d 1ba0 e4bd
00000130: 0a4e 723e 5c74 c63e 68c1 80bd f66a d93e
00000140: 68be 783d 75c4 0b3d a5de 253b 6a5e cebd
00000150: 4d70 34ba 350d 8b3e dca4 8f3b af31 8a3e
00000160: e71a ebbd 84a8 9f3b a970 063f f406 2bbe
00000170: 81cd b6bb c54f b23e 3706 743a 6246 3b3c
00000180: b12b e13d f972 633e 1182 fe3e 2063 babc
00000190: 2fc9 213e 0311 b6bd 1e9f 353c 0395 3c3d
000001a0: ca31 7b3d 26e8 84bd 7d17 e3bd 8ec7 a2bd
000001b0: 273c bbbe 6c29 9bbe e770 29bc c619 913e
000001c0: ca89 463e e2c9 a03e ed73 d6bb 9b32 a3bd
000001d0: 113e 41be 47d9 943e 2f9b 1cbe d46b 8e3e
000001e0: 0249 183e 3ce2 8f3e b654 61bd 441f 303d
000001f0: 0ffd 53bd a8fe 7d3d c7b9 cb3e d736 173e
00000200: b6df 613e 7b68 0d3f 89c0 033d cc30 b33e
00000210: acb7 af3e a831 de39 d574 0b3d 8d5a 223e
00000220: f7de 26bd c0b0 753e 895b bb3e ae06 89bd
00000230: cc01 a13c a1c8 22bc b283 58be a822 48bd
00000240: 7540 033e a034 a43e 00e8 f7bb fcf7 33bd
00000250: d7b6 87bd cb75 d03e e830 953e 2911 e33e
00000260: ef8e 143c b02a 593e b8c5 6b3e a06a 9bbd
00000270: acf2 693e fe37 9fbd f342 9bbd bec0 443d
00000280: 849a 1e3e 3a47 23be 2716 703d a44d 8dbd
00000290: 8db6 c73e f1f9 5cbd 7a9d 0ebc 6fea 8a3e
000002a0: eb3c baba a3a4 ee3e 12e1 6f3e 6e2e 9a3e
000002b0: 3310 173c bcbe ae3e c85e d2bc c06c 91bd
000002c0: dd83 70bd 3203 583e a2c6 f63c 3834 123e
000002d0: 6a13 16be 6dcd b33b cdd7 b2bd 45b7 13bd
000002e0: 830d 8bbd 36c5 37bc df90 803b 609f 9d3e
000002f0: a152 673e 46f5 d73b c394 abbe cfc3 dc3c
00000300: ef0f 9e3e 6372 4fbe 6344 d3bd d944 d43d
00000310: 712f 873e 48f5 a13e b3a3 8b3e 1928 ff3a
00000320: 9b75 f83e d620 f63d 35be cfbd 7ef9 f83b
00000330: 72df 693e a4a8 a0bc 8dc8 4dbc 641d 953e
00000340: 0e4a 9ebc 3f9c 893e 45e5 3dbe b60b e2bc
00000350: 2b89 35bb 159d 023e d448 86bd 0f01 c13e
00000360: 4f74 d03e 5e80 6cbc d56f dcbc 0db0 92bd
00000370: 15db 8fbc 925d cabb 23dc 5c3c 9483 693e
00000380: a408 8cbc ce91 b5be 14fd 0cbe 8f64 893e
00000390: 57df 07be 8bbf 19bc b1dd 8fbd 5633 c03e
000003a0: bcd1 9bbd 2f33 8c3c c516 433d cf96 8a3c
000003b0: 2fa7 9b3e 2b02 8e3b 4f25 e23e 1399 083e
000003c0: edcf 123d 61f7 813c f9a9 c83b 01ab 4a3c
000003d0: 30b9 723d 5dab ba3e 7e03 893e df94 a93e
000003e0: 1785 5b3c 10f9 97bd c35d 4dbd 0912 fa3c
000003f0: dae9 4abd 6f52 913a e512 05bc 3aaa 313e
0.3876718 0.1746279 0.3649668 -0.09441116 -0.14598373 0.32812572 0.37632656 0.31975004
-0.04413761 0.030753078 -0.009306155 -0.13931294 -0.1104532 0.40335077 -0.0044286936 -0.07543081
0.094722815 0.29244205 -0.23817351 -0.10074479 -0.03172649 -0.056925435 0.07446777 -0.14642425
0.03919563 0.1239875 0.27295965 0.48144907 0.33963794 -0.08214458 -0.007379484 -0.04924104
-0.029236207 -0.0073155253 -0.058467668 0.03492816 -0.14395563 -0.04023447 -0.04821245 0.1889695
0.30178317 0.29095647 0.11218168 0.31221977 0.13831352 0.10373565 0.19037485 0.37987
-0.14718692 -0.06804091 0.19002888 0.18786262 0.14271352 0.41655576 -0.044540886 -0.10666379
0.55181694 -0.03972753 0.2513166 -0.0692083 -0.051276326 -0.11205194 -0.07152522 0.38894698
0.11563268 0.5954802 0.45385018 0.09792212 -0.058215633 0.00425482 -0.07470333 0.29962867
-0.39703846 -0.0972588 0.09813969 -0.1116335 0.23662582 0.3876065 -0.06286889 0.42464417
0.06072846 0.034122903 0.0025309708 -0.10076602 -0.0006883189 0.27158514 0.0043836664 0.2699103
-0.114797406 0.0048723835 0.52515656 -0.16701871 -0.005578697 0.34826484 0.00093087874 0.011430355
0.109946616 0.22211827 0.49708608 -0.022752345 0.15799402 -0.088899635 0.0110853 0.046040546
0.06132678 -0.06489591 -0.110884644 -0.07948218 -0.3656933 -0.3030504 -0.010341859 0.28339976
0.193885 0.31404024 -0.006544581 -0.079686366 -0.18871333 0.2907202 -0.15293573 0.2781664
0.148716 0.2810229 -0.055012427 0.042998567 -0.051755007 0.062010437 0.39790174 0.14767013
0.22057995 0.5523755 0.032166038 0.34998167 0.34319818 0.00042380136 0.034046967 0.15854855
-0.04073998 0.23993206 0.36593273 -0.06690727 0.019654177 -0.009935529 -0.21143988 -0.048861176
0.12817557 0.320714 -0.0075654984 -0.04393767 -0.06626671 0.4071487 0.29138875 0.4434903
0.009067281 0.2120769 0.23024642 -0.075886965 0.22846478 -0.077743515 -0.07581129 0.048035376
0.1548863 -0.1594514 0.058614876 -0.068995744 0.39006463 -0.0539493 -0.0087045375 0.27131984
-0.0014208829 0.46609983 0.23425701 0.30113548 0.009220171 0.34129894 -0.02567996 -0.071008205
-0.058719505 0.21094969 0.030124012 0.14277732 -0.14655843 0.005487135 -0.08732567 -0.03606345
-0.067896865 -0.011216452 0.00392352 0.30785656 0.22590114 0.006590518 -0.33511934 0.026948838
0.3087153 -0.20258479 -0.10315778 0.10364694 0.26403382 0.31632447 0.2727333 0.0019466906
0.48527226 0.12017982 -0.10143701 0.007598101 0.22839144 -0.019611664 -0.012560022 0.29123986
-0.019322421 0.2687702 -0.1854449 -0.027593475 -0.0027700167 0.12755235 -0.065568596 0.3769612
0.40713736 -0.014434902 -0.026908794 -0.07162485 -0.017560521 -0.006175705 0.013480219 0.228041
-0.017093964 -0.35462803 -0.13768417 0.26834533 -0.13268791 -0.009384046 -0.07024706 0.37539166
-0.07608363 0.01711425 0.047629137 0.016917614 0.30400988 0.0043337545 0.4416909 0.13339643
0.035842825 0.01586503 0.006123778 0.012369872 0.05925864 0.36458865 0.26760477 0.33121392
0.01339843 -0.07420552 -0.050138246 0.030526178 -0.049539424 0.0011087189 -0.008122181 0.17350093

fc2.weight f4 [10, 256]
00000000: e339 c33d 1c5f 69be 98cc 50be 0e29 71bc
00000010: 484d ba3d 803c 29bc c618 553d 4d85 3b3d
00000020: f33a 43bd c313 f13d 29da b7bd f9fc 7cbd
00000030: c63f b13b 88ed 0dbf c544 21bd 0196 9cbc
00000040: 9025 933d 7598 9fbd a897 e83d 0dff bbbd
00000050: ed18 b6bd 1450 0cbe 32be d83d 0b3b cc3d
00000060: 280f 35be b778 1a3d 95c1 47bd 9471 55be
00000070: f289 39be 730a e03b 1b7f afbc 2e5f cdbc
00000080: a2bf 53bd 500d 40bd 2bd7 c3bd 2f67 5abc
00000090: 4fae 7cbc d8f4 d23c 64dd 27be c50e 7c3d
000000a0: 98e2 b53b dd2f 233e 3926 b0bc 01ba b7bc
000000b0: 3405 803d 02db 91be cbc5 aebd cfe6 dd3d
000000c0: 21cf 10be c26a ecbc 6941 b83d bdb2 693d
000000d0: 7c0f e53c ad4f b8bd 8f38 423c 1e13 d03d
000000e0: 9aa7 7cbe 5f14 45bd 0d09 fc3d 267d 03bd
000000f0: 3dc6 9cbd c2bf aa3d 0972 8bbd f4e4 c33d
00000100: e151 50be a6d1 b43d 4475 01be 0e13 f0bc
00000110: e586 32bd 918c 943c b6bd 8bbd 5564 8f3d
00000120: 18b6 b43d c7d1 e73d 8efe 34be 72a6 f43d
00000130: 6175 ad3d 18b7 3f3e f43d 57bd e38b bcbe
00000140: be49 a13d a3b7 223d f8f9 873b 9ddc 1e3e
00000150: 93a9 0bbd abb0 b6be 9c17 083d 85d1 943d
00000160: d471 d23d fbf7 3cbd 220d 6cbe bdbf e73d
00000170: d57c 6b3d e407 f8bd b91d 263d d425 eb3c
00000180: 39b3 68be e13d c43d b1e7 cc3d 69a3 233d
00000190: 8db5 7a3c eecd 3abc c181 1dbe 4b03 c83d
000001a0: 62e2 4dbd 8639 f0bb 48f6 353d 0ae9 3d3c
000001b0: 6610 143e 88ac 983c 6999 2fbc 349a 7ebe
000001c0: 58cd a23d 381b babd 9be8 7d3c 91cf 50bd
000001d0: 38ac 54bd 4300 87bd 7604 1cba 0ef8 84be
000001e0: 3f6c b93d db42 de3d bef8 acbd 53d0 27be
000001f0: 0966 e4bc c93d 113e 5a0a 0f3d e1ce 9bbe
00000200: 6bcf b03d 645e abbe 7bdb 77bd db76 be3d
00000210: c964 a1bd 9f15 6d3c 3b41 98bd 7cbd 843d
00000220: 065f 7ebd 1d2d dabd c1b4 863e 8797 1cbd
00000230: b500 3dbd 4ec8 73bd 0a4f 643e 5038 643d
00000240: 7386 db3d 20a5 f13d 2798 c1bc 3ca0 413d
00000250: e8af 993d f73d 9cbd 879d cfbc 2627 003e
00000260: c68d b5bd a4e5 1dbd 4d56 803d c02c 4ebd
00000270: 5289 b83d 2f6c 8dbb 29be 35bd ac25 973c
00000280: fdc8 d73d b9d1 35be 6c7d 09be d932 66bd
00000290: 8afb 34be 3d86 1d3e 6444 ffbc e74f 1ebe
000002a0: ee2b d1bd cb90 8fbd 0c59 bfbd df31 2e3d
000002b0: e38b f5bd 306c ae3d 83db ff3d 3886 ae3c
000002c0: afc8 273d cb24 d13d de2d 80bd e8bd 61bd
000002d0: 6751 e6bd c64f b53d 1891 ac3c ab76 503d
000002e0: bb91 423d 76be bbba ac21 dfbb e03c ee3d
000002f0: d203 d9bb 840b 83bc 4a59 093e b0cb 4bbd
00000300: eb64 f1bd d1f4 00be 28f6 bdbd 6eea 193d
00000310: 4512 70be 3fad 0abe 6f80 aa3d 3f79 a5be
00000320: e422 9bbe 4621 e5bd a466 033d 7c75 30be
00000330: 2fa2 233e aa8f 0fbd cbb2 9cbc 0021 1dbe
00000340: 0cfa 8abd 2ef5 46bd 03ed 6f3e d2f9 113c
00000350: 2376 aebd ee20 6fbe 16a1 73bc ec36 31be
00000360: 79e0 5ebb a97c ecbc 4f19 5ebd cc2d 70be
00000370: 25d8 f1bb 10f4 8b39 8585 02bc cf29 813d
00000380: 8b46 c5bc d560 ea3d 9e65 a53d 40ed f93d
00000390: fbe8 833b 2faf 9ebd 68ab 113d 1da8 58be
000003a0: 9e69 433d 4e1a 163e 9b2a 183d bb05 cc3c
000003b0: cbb8 023e 2d42 813e 6f62 203e 20e6 8abe
000003c0: fa21 f6bc d63f bc3d 47eb 7cbd 2cb8 62bd
000003d0: a789 58be bceb 3d3e 4783 ed3d 4cd3 09be
000003e0: f7b7 123d 4104 ddbd c206 613d 286b f13d
000003f0: 97d9 11bd 3676 50bd a34d 7cbd cb0f 94bc
0.095325254 -0.22790188 -0.20390546 -0.014719261 0.090967715 -0.010329366 0.05202558 0.045781422
-0.04766364 0.117713474 -0.089771576 -0.06176469 0.0054092137 -0.5544057 -0.039372224 -0.019114496
0.07184899 -0.07792751 0.11357051 -0.091795065 -0.08891473 -0.13702422 0.10583152 0.09972199
-0.17681563 0.03771278 -0.0487686 -0.20844108 -0.18119028 0.006837183 -0.021422913 -0.0250698
-0.051696427 -0.046887696 -0.095625244 -0.013330265 -0.015422418 0.025751516 -0.16393048 0.061537523
0.0055506937 0.15936227 -0.021502601 -0.02242756 0.062509924 -0.28487402 -0.0853382 0.10835039
-0.14141513 -0.0288595 0.08996851 0.057055224 0.027961485 -0.08999572 0.011854305 0.10159896
-0.2467331 -0.04811513 0.12306414 -0.032101773 -0.076549985 0.08337356 -0.0680886 0.09565154
-0.20343734 0.0882905 -0.1264239 -0.029305961 -0.043585677 0.018133434 -0.06823294 0.07001559
0.08823794 0.11319309 -0.1767523 0.119458094 0.08469654 0.18722188 -0.052549317 -0.36825475
0.07875393 0.03972591 0.0041496716 0.15513845 -0.034097265 -0.35681662 0.03322564 0.07266525
0.10275617 -0.04613493 -0.23051885 0.11315868 0.057492096 -0.1211088 0.04055569 0.028704561
-0.22724618 0.09582115 0.10005129 0.039950762 0.015302074 -0.0114016365 -0.15381528 0.09766253
-0.050264724 -0.007331076 0.044424325 0.011591205 0.1445938 0.018636957 -0.010717728 -0.24863511
0.079493225 -0.09087223 0.015497352 -0.0509792 -0.051922053 -0.06591847 -0.00059515925 -0.259705
0.090538494 0.108525954 -0.08445881 -0.16388063 -0.027880685 0.14183725 0.03492198 -0.30431274
0.08633312 -0.33470452 -0.060512047 0.09300014 -0.07880551 0.014470487 -0.07434317 0.06481454
-0.06210234 -0.10653136 0.2630978 -0.038230445 -0.046143252 -0.059517197 0.22295776 0.055717766
0.107190035 0.11799073 -0.023632122 0.047271952 0.075042546 -0.07629006 -0.02534367 0.12514934
-0.08864932 -0.03854908 0.062664606 -0.050335646 0.09010567 -0.004315875 -0.044370804 0.01845058
0.10536382 -0.17755784 -0.13426751 -0.056200836 -0.1767408 0.15383239 -0.03116054 -0.15460168
-0.10213457 -0.07010039 -0.09343156 0.04252803 -0.11989572 0.08516729 0.124930404 0.021304235
0.04096287 0.10212096 -0.062587485 -0.05511275 -0.11245995 0.08853106 0.02106528 0.05089442
0.04750226 -0.001432373 -0.006809434 0.11632705 -0.00662277 -0.015996702 0.13412967 -0.0497548
-0.11786827 -0.1259339 -0.09275466 0.037577085 -0.2344447 -0.1354265 0.08325278 -0.32319066
-0.30300057 -0.11187987 0.032080308 -0.17232317 0.15979837 -0.035049118 -0.019128224 -0.1534462
-0.06785974 -0.048573665 0.23430257 0.008909659 -0.085186265 -0.23352405 -0.014869949 -0.17306107
-0.0034008308 -0.028868036 -0.054223355 -0.2345497 -0.0073805028 0.00026693987 -0.007966404 0.063068025
-0.02408149 0.114442505 0.080760226 0.12203455 0.004025576 -0.07748257 0.035563856 -0.2115788
0.047708146 0.14658472 0.037150007 0.024905076 0.12765805 0.252458 0.1566255 -0.27128696
-0.030045498 0.09191863 -0.061747815 -0.05535142 -0.2114626 0.18546957 0.11597305 -0.1345951
0.035819974 -0.10791827 0.054938085 0.117880166 -0.0356079 -0.050893985 -0.061597478 -0.018073937

fc2.bias f4 [10]
00000000: 5e1d 81be d204 e7bd 6d5e 78be 4cd0 0d3e
00000010: 3f93 883e 5953 24be 28de 653e c5b0 d0bc
00000020: 67f2 683e 3451 4bbd
-0.25217718 -0.11280216 -0.2425477 0.1384899 0.2667484 -0.1604742 0.22448027 -0.025474915
0.22748719 -0.04963799
